PyDev console: starting.
Python 3.9.5 (tags/v3.9.5:0a7dcbd, May  3 2021, 17:27:52) [MSC v.1928 64 bit (AMD64)] on win32
runfile('D:/HWDB1_1/train.py', wdir='D:/HWDB1_1')
训练集数据: 236694
测试集数据: 59092
网络结构：
----------------------------------------------------------------
        Layer (type)               Output Shape         Param #
================================================================
            Conv2d-1            [-1, 8, 64, 64]             216
       BatchNorm2d-2            [-1, 8, 64, 64]              16
             ReLU6-3            [-1, 8, 64, 64]               0
            Conv2d-4           [-1, 16, 64, 64]           1,152
       BatchNorm2d-5           [-1, 16, 64, 64]              32
             ReLU6-6           [-1, 16, 64, 64]               0
            Conv2d-7           [-1, 16, 64, 64]             144
       BatchNorm2d-8           [-1, 16, 64, 64]              32
             ReLU6-9           [-1, 16, 64, 64]               0
           Conv2d-10           [-1, 32, 64, 64]             512
      BatchNorm2d-11           [-1, 32, 64, 64]              64
           Conv2d-12           [-1, 32, 32, 32]             288
      BatchNorm2d-13           [-1, 32, 32, 32]              64
            ReLU6-14           [-1, 32, 32, 32]               0
           Conv2d-15           [-1, 32, 32, 32]           1,024
      BatchNorm2d-16           [-1, 32, 32, 32]              64
           Conv2d-17           [-1, 32, 32, 32]             288
      BatchNorm2d-18           [-1, 32, 32, 32]              64
            ReLU6-19           [-1, 32, 32, 32]               0
           Conv2d-20           [-1, 64, 32, 32]           2,048
      BatchNorm2d-21           [-1, 64, 32, 32]             128
           Conv2d-22           [-1, 64, 16, 16]             576
      BatchNorm2d-23           [-1, 64, 16, 16]             128
            ReLU6-24           [-1, 64, 16, 16]               0
           Conv2d-25           [-1, 64, 16, 16]           4,096
      BatchNorm2d-26           [-1, 64, 16, 16]             128
           Conv2d-27           [-1, 64, 16, 16]             576
      BatchNorm2d-28           [-1, 64, 16, 16]             128
            ReLU6-29           [-1, 64, 16, 16]               0
           Conv2d-30          [-1, 128, 16, 16]           8,192
      BatchNorm2d-31          [-1, 128, 16, 16]             256
           Conv2d-32          [-1, 128, 16, 16]           1,152
      BatchNorm2d-33          [-1, 128, 16, 16]             256
            ReLU6-34          [-1, 128, 16, 16]               0
           Conv2d-35          [-1, 128, 16, 16]          16,384
      BatchNorm2d-36          [-1, 128, 16, 16]             256
           Conv2d-37          [-1, 128, 16, 16]           1,152
      BatchNorm2d-38          [-1, 128, 16, 16]             256
            ReLU6-39          [-1, 128, 16, 16]               0
           Conv2d-40          [-1, 128, 16, 16]          16,384
      BatchNorm2d-41          [-1, 128, 16, 16]             256
           Conv2d-42          [-1, 128, 16, 16]           1,152
      BatchNorm2d-43          [-1, 128, 16, 16]             256
            ReLU6-44          [-1, 128, 16, 16]               0
           Conv2d-45          [-1, 128, 16, 16]          16,384
      BatchNorm2d-46          [-1, 128, 16, 16]             256
           Conv2d-47          [-1, 128, 16, 16]           1,152
      BatchNorm2d-48          [-1, 128, 16, 16]             256
            ReLU6-49          [-1, 128, 16, 16]               0
           Conv2d-50          [-1, 128, 16, 16]          16,384
      BatchNorm2d-51          [-1, 128, 16, 16]             256
           Conv2d-52            [-1, 128, 8, 8]           1,152
      BatchNorm2d-53            [-1, 128, 8, 8]             256
            ReLU6-54            [-1, 128, 8, 8]               0
           Conv2d-55            [-1, 256, 8, 8]          32,768
      BatchNorm2d-56            [-1, 256, 8, 8]             512
           Conv2d-57            [-1, 256, 8, 8]           2,304
      BatchNorm2d-58            [-1, 256, 8, 8]             512
            ReLU6-59            [-1, 256, 8, 8]               0
           Conv2d-60            [-1, 256, 8, 8]          65,536
      BatchNorm2d-61            [-1, 256, 8, 8]             512
           Conv2d-62            [-1, 256, 8, 8]           2,304
      BatchNorm2d-63            [-1, 256, 8, 8]             512
            ReLU6-64            [-1, 256, 8, 8]               0
           Conv2d-65            [-1, 256, 8, 8]          65,536
      BatchNorm2d-66            [-1, 256, 8, 8]             512
           Conv2d-67            [-1, 256, 4, 4]           2,304
      BatchNorm2d-68            [-1, 256, 4, 4]             512
            ReLU6-69            [-1, 256, 4, 4]               0
           Conv2d-70            [-1, 512, 4, 4]         131,072
      BatchNorm2d-71            [-1, 512, 4, 4]           1,024
           Conv2d-72            [-1, 512, 4, 4]           4,608
      BatchNorm2d-73            [-1, 512, 4, 4]           1,024
            ReLU6-74            [-1, 512, 4, 4]               0
           Conv2d-75            [-1, 512, 4, 4]         262,144
      BatchNorm2d-76            [-1, 512, 4, 4]           1,024
           Linear-77                 [-1, 1024]       8,389,632
          Dropout-78                 [-1, 1024]               0
             ReLU-79                 [-1, 1024]               0
           Linear-80                 [-1, 3922]       4,020,050
================================================================
Total params: 13,078,218
Trainable params: 13,078,218
Non-trainable params: 0
----------------------------------------------------------------
Input size (MB): 0.05
Forward/backward pass size (MB): 17.52
Params size (MB): 49.89
Estimated Total Size (MB): 67.46
----------------------------------------------------------------
…
